model_initial.pt (torch, 14596 bytes, 5 tensors)

layers.0.weight f4 [64, 12]
0	0x3ebc951c	0.3683251
1	0x3e3d2b3b	0.18473522
2	0xbd0c16cd	-0.034201432
3	0x3e4c3aa2	0.19944242
4	0xbe4f8f31	-0.20269467
5	0xbd2a66bf	-0.041601893
6	0xbe891296	-0.26771992
7	0x3e3fca91	0.18729617
8	0x3e3fc0d3	0.187259
9	0xbe1b7624	-0.15181786
10	0x3e2c71ed	0.16840334
11	0x3df2c655	0.11854235
12	0x3e9fe4f2	0.3122936
13	0x3ce86acb	0.028371235
14	0x3e067a51	0.13132598
15	0xbdf0720a	-0.11740501
16	0x3e0f125a	0.13971844
17	0x3e15a9de	0.1461558
18	0xba17bea8	-0.0005788603
19	0x3e538c01	0.20658876
20	0xbe88760c	-0.26652563
21	0xbdb475a1	-0.088114984
22	0xbe66b5b5	-0.22530253
23	0x3e289aea	0.16465345
24	0xbeb766b9	-0.3582056
25	0xbde04dd5	-0.10952345
26	0x3d1979bd	0.037469614
27	0xbe5a7a98	-0.21335828
28	0x3e3c4567	0.1838585
29	0xbe55fc52	-0.20897034
30	0x3dfa5334	0.12222901
31	0xbedbb3fc	-0.42910755
32	0x3ea86ec4	0.32897007
33	0x3d40ede0	0.047101855
34	0xbc9eb65e	-0.019374069
35	0x3d696a3d	0.056986082
36	0x3e433c56	0.19065985
37	0x3dbb24ba	0.091378644
38	0x3d8b4a06	0.06801228
39	0xbe1b16c8	-0.15145409
40	0xbd700902	-0.05860234
41	0x3db0bd7c	0.08629891
42	0x3e5b409c	0.21411365
43	0x3ed57766	0.41692656
44	0x3d08d81f	0.033409234
45	0xbdb1b628	-0.08677322
46	0x3d8251d7	0.06363266
47	0x3e079e1b	0.13243906
48	0x3e98f5f9	0.29875162
49	0xbdd73d8b	-0.10509785
50	0xbe080cd2	-0.1328614
51	0xbe74511a	-0.23859063
52	0xbe9edbb7	-0.31027004
53	0x3e2b0c30	0.16703868
54	0xbddf45d7	-0.10901993
55	0x3e82a2fe	0.25514978
56	0x3d718930	0.058968723
57	0xbd2ad69f	-0.041708585
58	0x3ea7c101	0.32764438
59	0xbe6bf460	-0.2304244
60	0xbd7bf940	-0.061517
61	0xbe0bbd18	-0.13646352
62	0x3e045fc3	0.12927155
63	0xbe1bff37	-0.15234075
64	0x3daa4cb1	0.08315409
65	0xbe01828f	-0.1264746
66	0x3e653bbc	0.22386068
67	0xbe9aa80d	-0.30206338
68	0xbd6b1471	-0.05739254
69	0xbdbdebe3	-0.092735074
70	0x3e4f6f6f	0.20257352
71	0xbc17b6ac	-0.009259861
72	0x3eaf571d	0.3424615
73	0xbec4ae14	-0.3841406
74	0xbe64f934	-0.22360688
75	0xbea67d9d	-0.3251771
76	0xbe8a7262	-0.27040392
77	0x3e887d25	0.26657978
78	0x3d87ac6e	0.06624685
79	0x3edc9504	0.4308244
80	0xbea210d0	-0.31653452
81	0xbe96062c	-0.29301584
82	0x3e8007d0	0.2500596
83	0xbd164ffe	-0.03669738
84	0x3eaf0026	0.341798
85	0x3d9e0163	0.07715108
86	0x3e8984f9	0.26859263
87	0xbec863b9	-0.39138582
88	0xbe43f95a	-0.19138089
89	0x3e4b02e4	0.19825321
90	0xbc9c8b18	-0.019109294
91	0x3da41114	0.0801107
92	0x3e1393e4	0.14411885
93	0x3d0a3ec4	0.033751264
94	0xbe192b40	-0.14957905
95	0xbe61bd97	-0.22044979
96	0x3ec98d26	0.393655
97	0x3b5fe234	0.0034161927
98	0xba837e70	-0.0010032188
99	0xbe63ffdf	-0.22265576
100	0xbe812574	-0.25223887
101	0x3dea2840	0.11433458
102	0xbe0ff34e	-0.14057657
103	0xbe04d361	-0.1297126
104	0xbd9aaef4	-0.07552901
105	0xbe43f1d1	-0.19135214
106	0xbe338d54	-0.17534381
107	0xbdb0b6a2	-0.086285844
108	0xbec77875	-0.3895909
109	0xbe2dd5fa	-0.16976157
110	0x3eb8ddff	0.3610687
111	0xbcd5cbf5	-0.02609823
112	0x3e698eb6	0.22808346
113	0xbeb051b5	-0.34437338
114	0xbe929301	-0.2862778
115	0xbe8bcf10	-0.27306414
116	0x3e492d17	0.19646107
117	0xbde89947	-0.1135736
118	0xbd9ada6a	-0.075611904
119	0xbdc64058	-0.09680241
120	0x3e1716dd	0.14754815
121	0x3bb3a17a	0.005481896
122	0xbd6cb186	-0.057786487
123	0xbe29450f	-0.1653025
124	0xbeb1ed38	-0.34751296
125	0xbcadd827	-0.021221234
126	0xbe319bd5	-0.17344601
127	0xbda7d234	-0.0819439
128	0x3e331c94	0.1749137
129	0xbd59c063	-0.05316199
130	0x3eba7370	0.36416197
131	0x3e0450dc	0.1292147
132	0xbec50bd6	-0.38485593
133	0x3e1a0e85	0.15044601
134	0xbda16f30	-0.078825355
135	0xbde6657d	-0.11249826
136	0xbd93cbf4	-0.07216635
137	0xbeb7ed0d	-0.35923043
138	0x3e76b17b	0.24091141
139	0xbe54bcc8	-0.2077514
140	0x3e8d4fa2	0.27599818
141	0xbea29503	-0.31754312
142	0x3e6c506a	0.2307755
143	0xbea14494	-0.31497633
144	0xbe0a0397	-0.13477932
145	0x3d60681d	0.05478679
146	0x3e3a76b4	0.18209344
147	0x3e055076	0.13018975
148	0x3ea75e61	0.32689193
149	0xbe8316ec	-0.25603426
150	0x3da75ff8	0.081726015
151	0xbe6722a2	-0.22571805
152	0x3d30bab8	0.04314682
153	0xbe4febf9	-0.2030486
154	0x3e7cf075	0.24701102
155	0xbe192045	-0.14953716
156	0x3c8a8382	0.016908411
157	0xbd809c1b	-0.06279775
158	0x3d976118	0.07391566
159	0x3bbf90a5	0.0058461004
160	0x3ead5c85	0.3385965
161	0x3d0ae035	0.033905227
162	0xbc0465c4	-0.008080903
163	0xbebb5f6b	-0.36596236
164	0x3e37358f	0.17891525
165	0xbd848196	-0.06470029
166	0xbcdff452	-0.02733818
167	0x3e56e80e	0.2098696
168	0xbd198f92	-0.037490435
169	0xbe5c70f1	-0.21527459
170	0x3b115d62	0.0022180905
171	0xbbd26491	-0.00642068
172	0x3e9adb9a	0.30245668
173	0xbdc367ec	-0.09541306
174	0xbdd6d7ba	-0.10490365
175	0xbe871546	-0.26383418
176	0xbe06dba0	-0.13169718
177	0x3d2f6787	0.04282334
178	0x3e0092ce	0.12556002
179	0xbe907446	-0.2821371
180	0x3e59ce58	0.2127012
181	0x3c10af7e	0.008830903
182	0x3df1da26	0.11809187
183	0xbe044275	-0.12915976
184	0x3daf9793	0.08573832
185	0x3e2d6c8d	0.1693594
186	0x3d5c09c9	0.05372027
187	0x3e080bba	0.13285723
188	0xbe488007	-0.19580089
189	0xbd21088c	-0.03931479
190	0xbe593372	-0.21211031
191	0xbc8d6699	-0.017260836
192	0x3e9b6247	0.30348417
193	0x3e7a7211	0.24457575
194	0xbd7cad33	-0.061688613
195	0xbd803cc3	-0.062615894
196	0xbd3280d5	-0.043579895
197	0x3bbe5617	0.0058086026
198	0xbc9fba58	-0.019498035
199	0x3e559ee4	0.20861393
200	0xbe864108	-0.2622149
201	0xbcaba9aa	-0.020954926
202	0x3e541d6b	0.20714347
203	0x3e61eee3	0.22063784
204	0x3d546612	0.051855154
205	0xbea6b601	-0.32560733
206	0xbe28fbcb	-0.16502301
207	0xbe59a845	-0.21255596
208	0xbd76c3fe	-0.060245506
209	0x3e296cca	0.16545406
210	0x3e6c8364	0.23096997
211	0x3ea6a9c3	0.32551393
212	0xbecdbfb8	-0.40185332
213	0xbe9ded6b	-0.30845198
214	0xbe053cc7	-0.13011466
215	0x3ed7c88f	0.42145202
216	0x3e2e5ecf	0.17028354
217	0x3dbaae0c	0.09115228
218	0x3d65ab79	0.056071732
219	0xbde5225d	-0.11188195
220	0xbea012e8	-0.31264424
221	0x3dca358c	0.098734945
222	0xbe840219	-0.2578285
223	0x3d5d7184	0.054063335
224	0xbeb6bdec	-0.35691774
225	0x3d98ed5f	0.0746715
226	0x3e03c60f	0.12868522
227	0x3e02c000	0.12768555
228	0xbea0a5ba	-0.3137644
229	0xbe432fe5	-0.19061239
230	0xbe73a68b	-0.23794
231	0x3ebb59a9	0.36591843
232	0x3e5bbfe0	0.21459913
233	0x3e930686	0.28715914
234	0x3b4794cd	0.0030453682
235	0xbdf3f1a9	-0.119113274
236	0x3e444151	0.19165541
237	0xbdfa33bc	-0.12216899
238	0xbe787597	-0.24263607
239	0xbe8461ba	-0.2585581
240	0x3e985d5e	0.29758734
241	0xbddacc4c	-0.10683498
242	0xbd976a6a	-0.07393344
243	0xbe6b2386	-0.2296277
244	0xbe5fad06	-0.21843347
245	0xbe309932	-0.1724594
246	0xbe61112b	-0.21979205
247	0x3e886136	0.26636666
248	0xbe224410	-0.15846276
249	0x3e892876	0.26788682
250	0x3d89c305	0.0672665
251	0xbe96cc92	-0.2945295
252	0xbe5b948f	-0.2144339
253	0xbd3ebdb5	-0.046567637
254	0xbda3a61b	-0.079906665
255	0xbdd3f139	-0.10348744

layers.0.bias f4 [64]
0	0xbe3bb403	-0.18330388
1	0x3eb26851	0.34845212
2	0x3e3d4572	0.18483523
3	0x3e84f978	0.2597158
4	0xbde24d0f	-0.11049854
5	0xbe3aeb36	-0.18253788
6	0x3e041cd4	0.12901622
7	0x3d06de20	0.03292668
8	0xbe82385c	-0.25433624
9	0x3d8fd21d	0.07022498
10	0x3dda3c42	0.106560245
11	0x3d935197	0.071932964
12	0x3d80d4b8	0.06290573
13	0xbde8bd09	-0.113641806
14	0x3dd4b423	0.10385921
15	0x3e10c97b	0.14139359
16	0xbdab7163	-0.08371236
17	0xbe167305	-0.14692314
18	0x3e4c5a19	0.19956245
19	0x3df1a43a	0.11798902
20	0xbb0684b8	-0.0020525884
21	0x3e90fb7b	0.28316864
22	0xbdc9cc80	-0.098534584
23	0x3e602518	0.2188915
24	0x3e8409c8	0.25788713
25	0xbdcde65e	-0.10053705
26	0x3e6aa035	0.22912677
27	0xbe32750f	-0.17427467
28	0xbcb5ba33	-0.022183513
29	0x3d8db4f7	0.06919282
30	0xbe4f2b1c	-0.20231289
31	0x3e9b7b0b	0.30367312
32	0x3d042c3c	0.032268748
33	0x3e7b4deb	0.24541442
34	0xbe51e667	-0.20498048
35	0x3e873be2	0.26412874
36	0xbe50bf04	-0.20385367
37	0xbe5484fc	-0.20753855
38	0x3e30cf50	0.17266583
39	0x3e96632b	0.29372534
40	0x3e373119	0.17889823
41	0xbe982f38	-0.29723525
42	0xbdeec1a4	-0.11658028
43	0x3ddbc63e	0.10731171
44	0x3e2778cb	0.16354673
45	0x3e5178b8	0.20456207
46	0x3e9b19a9	0.30293015
47	0xbce3911a	-0.02777915
48	0x3e395040	0.18097019
49	0x3e9d32aa	0.30702716
50	0x3dc7b944	0.097521335
51	0x3e951213	0.29115352
52	0x3d8bfa74	0.068348795
53	0x3e1a3eee	0.15063068
54	0xbdb69148	-0.08914429
55	0xbdec11a7	-0.115268044
56	0xbcab1f44	-0.020888932
57	0x3d4df130	0.050278842
58	0x3e1ac4b6	0.15114102
59	0xbe0b0c41	-0.13578893
60	0x3e381e86	0.17980394
61	0x3a3517d0	0.00069081504
62	0x3e38f7f8	0.18063343
63	0x3ca0cd3b	0.019629112

layers.3.weight f4 [32, 64]
0	0x3d69707c	0.05699204
1	0x3dabf7e3	0.0839689
2	0xbe2f3181	-0.17108728
3	0x3e5700c7	0.2099639
4	0x3da55e91	0.08074678
5	0xbce0bfac	-0.027435146
6	0x3e44eb15	0.19230302
7	0x3d90bdc2	0.070674434
8	0x3e53967a	0.20662871
9	0xbe22b38e	-0.15888807
10	0x3d8d2eb9	0.06893677
11	0xbe1b4bb8	-0.15165603
12	0xbe25e56c	-0.16200799
13	0xbd667ba8	-0.05627027
14	0x3c83a775	0.01607106
15	0x3de2d931	0.11076582
16	0x3e51f412	0.20503262
17	0x3e952be8	0.2913506
18	0x3e45b87f	0.19308661
19	0xbd35148c	-0.04420905
20	0x3d888346	0.066656634
21	0x3c189920	0.009313852
22	0xbccf0aac	-0.025273643
23	0x3e071f41	0.13195516
24	0x3e6b96be	0.23006722
25	0x3e6b9e84	0.23009688
26	0x3e2edd5d	0.17076631
27	0x3e862a8e	0.26204342
28	0x3e0c9f3e	0.13732621
29	0xbe2d2532	-0.1690872
30	0x3e53a943	0.20670037
31	0xbdb2ccc7	-0.087304644
32	0xbe36186b	-0.17782752
33	0x3dedc194	0.11609188
34	0x3bbe23fc	0.0058026295
35	0xbb953ee5	-0.0045546168
36	0x3dfb0520	0.12256837
37	0x3d0a588a	0.033775844
38	0xbd8a4eec	-0.067533344
39	0x3e91cd0a	0.28476745
40	0x3e09a6b1	0.13442494
41	0x3da49a14	0.080372006
42	0xbd1824c6	-0.037144445
43	0x3e0b1bd1	0.1358483
44	0x3e79c1ae	0.24390289
45	0xbd47ca33	-0.048776817
46	0x3e0de0c7	0.13855277
47	0x3c89cccd	0.01682129
48	0x3defc3ee	0.117072925
49	0x3e61aeca	0.22039333
50	0x3b3c6c6d	0.002875115
51	0x3e64f939	0.22360696
52	0x3da2c69e	0.079480395
53	0x3e55d345	0.20881374
54	0x3e940968	0.28913426
55	0xbdc0b3f4	-0.09409323
56	0x3d0651dd	0.032792915
57	0x3e1f91dc	0.15582985
58	0x3d803eeb	0.06262001
59	0xbd82648f	-0.06366836
60	0x3dc2781f	0.094955675
61	0x3e2c5397	0.16828762
62	0x3e6d9bd4	0.23203975
63	0x3e498e6e	0.19683239
64	0xbdcb4a46	-0.09926276
65	0xbdee3510	-0.116312146
66	0xbdcc3a7e	-0.09972094
67	0xbdf459c4	-0.11931184
68	0x3d198ea3	0.037489545
69	0x3a6575df	0.0008753221
70	0x3d18dd65	0.037320513
71	0xbdac4f70	-0.08413589
72	0xbd373eb7	-0.044737544
73	0xbc4a9c1e	-0.012366323
74	0xbe376856	-0.17910895
75	0xbd8579ad	-0.065173484
76	0xbd9cc24d	-0.076542474
77	0xbe0b0ea4	-0.13579804
78	0xbe26f07a	-0.16302672
79	0x3d0e9dac	0.034818336
80	0x3d0acafe	0.033884995
81	0xbc956b2c	-0.01823958
82	0x3d27566d	0.040853906
83	0xbdd981a6	-0.106204316
84	0xbdd85e46	-0.10564856
85	0xbcb9e7a5	-0.022693465
86	0xbdbf5fd3	-0.09344449
87	0xbdbd11f6	-0.092319414
88	0xbe362033	-0.1778572
89	0xbd25b229	-0.04045311
90	0xbe19ed63	-0.15031962
91	0xbdaadce3	-0.08342912
92	0x3d3a74f4	0.04552169
93	0xbdbb67d3	-0.09150662
94	0xbdee0ec4	-0.1162391
95	0x3bdc7203	0.0067274584
96	0xbddaf496	-0.10691182
97	0xbda6066c	-0.081066936
98	0x3d54ccfe	0.05195331
99	0xbe060c6f	-0.1309068
100	0xbe168985	-0.14700897
101	0xbe0d623f	-0.13807009
102	0xbde4eb09	-0.11177642
103	0xbdfc45a4	-0.123179704
104	0xbe035773	-0.12826328
105	0xbc118c3b	-0.008883531
106	0xbd3d0c6f	-0.046154436
107	0xbdd7a3ba	-0.10529275
108	0xbe2833be	-0.16425988
109	0xbdd21b89	-0.10259158
110	0xbe02c928	-0.12772048
111	0xbdf8f776	-0.121565744
112	0xbe3efc9e	-0.18651053
113	0xbd2e51b0	-0.042558372
114	0xbe1f2a14	-0.15543395
115	0xbe2e5649	-0.17025103
116	0xbe23ee4a	-0.16008869
117	0xbc8601c6	-0.016358268
118	0xbe086ae0	-0.1332202
119	0xbdecf899	-0.11570854
120	0x3d05d317	0.032672014
121	0x38207e20	3.8264436e-05
122	0x3c1b4a96	0.009478232
123	0xbe449244	-0.19196421
124	0xbe27dffd	-0.16394038
125	0xbdd17312	-0.10227026
126	0x3cd64d2a	0.026159842
127	0xbd74a110	-0.059723914
128	0xbd1c7c2c	-0.038204357
129	0x3d5fbcf5	0.054623563
130	0x3d22aeb0	0.039717376
131	0x3d1f4e99	0.038893316
132	0xbbe98158	-0.0071260147
133	0x3e3c93bf	0.18415736
134	0xbcb25631	-0.021769615
135	0xbd890e95	-0.066922344
136	0xbceb3a9f	-0.028714476
137	0x3ddfea77	0.109333925
138	0x3dc77816	0.097397014
139	0x3e2be9c4	0.16788393
140	0x3e42878f	0.18997024
141	0x3dd4751f	0.103739016
142	0x3e4bdfc4	0.19909579
143	0xbcddd342	-0.027078275
144	0xbdae3ccc	-0.0850769
145	0xbd9d2da6	-0.076747224
146	0x3e01869d	0.12649007
147	0x3e72193b	0.23642437
148	0xbd069665	-0.03285827
149	0x3d2b0191	0.04174954
150	0x3dc9f3fa	0.09860988
151	0x3e128325	0.1430784
152	0xbdc8ad1c	-0.09798643
153	0xbdd8194b	-0.10551699
154	0xbd01b16d	-0.031663347
155	0x3d34881c	0.044075117
156	0x3da43c53	0.080193184
157	0x3e1690ce	0.14703676
158	0x3ae7a888	0.0017674128
159	0x3e309c4c	0.17247123
160	0x3e08f644	0.13375193
161	0xbc818740	-0.015811563
162	0x3e753eeb	0.23949783
163	0x3d672119	0.05642805
164	0xbcf7b98e	-0.030239847
165	0x3d8001d9	0.062503524
166	0x3deae7fb	0.11470028
167	0xbe378d93	-0.179251
168	0x3e2435e7	0.16036187
169	0xbcccae94	-0.02498559
170	0x3d86927a	0.06570907
171	0x3d3683d7	0.044559326
172	0xbdfcf81f	-0.12352013
173	0x3da98a2c	0.08278307
174	0x3d51125e	0.051042907
175	0x3c4c93d9	0.0124864215
176	0xbca0adf0	-0.01961419
177	0x3aa450b2	0.0012536256
178	0x3e0b2bbb	0.135909
179	0xbe050a16	-0.12992129
180	0x3d1eb6c4	0.038748518
181	0xbbd2099c	-0.006409837
182	0xbd6ec53b	-0.058293562
183	0x3e53de52	0.20690277
184	0xbbdae4f8	-0.0066801272
185	0x3c1a3002	0.00941086
186	0x3e38bf69	0.18041767
187	0x3e1d4d3d	0.15361495
188	0xbd8bef8a	-0.06832798
189	0xbdb23347	-0.087011866
190	0xbdee7ddc	-0.116450995
191	0xbd94a5e8	-0.072582066
192	0x3e6b4679	0.22976102
193	0x3e063ca2	0.13109067
194	0xbd417754	-0.04723294
195	0x3d9ebd13	0.07750907
196	0x3e2f1e80	0.17101479
197	0xbdca8b37	-0.098898344
198	0x3e579c8e	0.21055815
199	0x3db51f48	0.08843857
200	0x3df33f88	0.11877352
201	0xbe4320c5	-0.1905547
202	0x3da3ab22	0.07991625
203	0x3c91e556	0.017809551
204	0xbda9157b	-0.0825605
205	0xbd7bc40f	-0.061466273
206	0x3cc35ac6	0.023846995
207	0x3e131100	0.14361954
208	0x3d133c8c	0.035946414
209	0x3e8b165f	0.27165505
210	0x3e087fd7	0.13330017
211	0x3d4de61c	0.050268278
212	0x3df9173b	0.12162634
213	0xbde6870e	-0.112562284
214	0xbb7d7abe	-0.0038677896
215	0x3e083b67	0.1330391
216	0x3e234a0b	0.15946214
217	0x3dd6b166	0.10483055
218	0x3e3bd1d2	0.18341759
219	0x3df6d9ac	0.12053236
220	0x3d18eebe	0.037337057
221	0xbe15c171	-0.14624573
222	0x3e59b457	0.212602
223	0xbca0ce72	-0.01962969
224	0xbe0212db	-0.12702505
225	0x3c3bb2c6	0.011456197
226	0xbdf41953	-0.11918893
227	0xbdfdce92	-0.12392916
228	0x3d442c03	0.047893535
229	0x3e571124	0.21002632
230	0x3d54d937	0.051964965
231	0x3e8d4723	0.27593336
232	0x3d069ca9	0.032864247
233	0x3e1dccfd	0.15410228
234	0xbd94a932	-0.07258834
235	0x3e750106	0.23926172
236	0x3e801bcc	0.25021207
237	0x3c575e5c	0.013145056
238	0x3e2957c7	0.1653739
239	0x3e0316a1	0.12801601
240	0x3df08dea	0.11745818
241	0x3e631882	0.22177318
242	0xbde577a7	-0.112044625
243	0x3e579c92	0.2105582
244	0x3c85d4c1	0.0163368
245	0x3df8e9c7	0.121539645
246	0x3d903daa	0.070430115
247	0xbdbb7aed	-0.091543056
248	0x3dc31ec2	0.09527351
249	0x3dda8981	0.10670758
250	0xbd028c58	-0.031872123
251	0xbe4628f7	-0.19351564
252	0x3de9b7a9	0.114119835
253	0x3e7d95a2	0.24764112
254	0x3e7530c0	0.23944378
255	0x3e628e6c	0.22124642

layers.3.bias f4 [32]
0	0x3c987ec1	0.018615128
1	0xbe0f1d67	-0.1397606
2	0xbc8f9bd2	-0.017530356
3	0x3a51e98e	0.00080075196
4	0xbe094ad4	-0.13407451
5	0x3e1ad457	0.15120064
6	0x3d6e642a	0.058200993
7	0xbd434dce	-0.047681622
8	0x3d4b2afc	0.04960154
9	0x3dd58c78	0.10427183
10	0x3d4cf0c4	0.0500343
11	0x3d45441e	0.048160665
12	0xbdfe8108	-0.124269545
13	0x3d9075fb	0.07053753
14	0x3da87363	0.08225133
15	0x3d7d7ef8	0.061888665
16	0x3e3fb42c	0.18721074
17	0x3e08be00	0.13353729
18	0x3d72fb77	0.059321847
19	0xbd884661	-0.06654049
20	0x3b30c400	0.0026972294
21	0x3d325744	0.043540254
22	0x3d884cf2	0.06655301
23	0x3d39acb5	0.045330722
24	0x3dca07c1	0.0986476
25	0x3d929726	0.071577355
26	0xbdf28131	-0.118410476
27	0x3e29f1a0	0.16596079
28	0x3b7b4bff	0.0038344858
29	0x3e08406f	0.1330583
30	0x3d369bb5	0.044582088
31	0x3dda0e72	0.106472865

layers.5.weight f4 [1, 32]
0	0x3e2a946e	0.16658184
1	0xbd347851	-0.044060055
2	0xbe825a31	-0.25459436
3	0x3e872ed7	0.26402923
4	0xbd8b61dc	-0.068057746
5	0x3e8f55c3	0.27995118
6	0x3e62ef40	0.22161579
7	0x3e63f17a	0.22260085
8	0x3e94c8e1	0.29059508
9	0x3e82d104	0.2555009
10	0x3e78a7a4	0.242827
11	0x3e874668	0.26420903
12	0xbab502fa	-0.0013810091
13	0xbe5b30d4	-0.21405345
14	0xbe06e10d	-0.13171788
15	0x3e8787ae	0.26470703
16	0x3e8f9703	0.280449
17	0x3e98e6e6	0.29863662
18	0xbd34228d	-0.043978263
19	0x3b8ba19f	0.00426121
20	0xbe5dcc41	-0.21659948
21	0x3e8d1327	0.27553675
22	0xbe87b87d	-0.2650794
23	0xbd9d3d16	-0.07677667
24	0x3ea434d4	0.32071555
25	0x3e5eeb1e	0.21769378
26	0xbdeaf5f2	-0.114726916
27	0xbe80af57	-0.25133774
28	0xbd6a44d3	-0.057194542
29	0x3e93094c	0.2871803
30	0xbe83d7d3	-0.25750598
31	0x3ea3466f	0.31889674
